model.pth (torch, 272070 bytes, 5 tensors)

weight_ih_l0 f4 [512, 1]
000000 a5 b5 a9 3d 1d 28 51 3e 03 a4 de 3d 1f a0 bc 3d
       0.08286599 0.20425458 0.108711265 0.09210228
000010 dd 03 2f 3e 0d 1e 2a be fd d5 7f be be 21 d9 3c
       0.17091317 -0.16613026 -0.24983974 0.026505347
000020 80 14 01 3d ad a9 32 bd 12 22 67 3e b0 59 11 bd
       0.03151369 -0.043618847 0.2257159 -0.035485923
000030 8b 84 c2 bd 6a 35 bf 3d e5 66 12 3d 7a a7 31 be
       -0.09497937 0.0933636 0.03574266 -0.17349043
000040 ba 5c ce 3d eb d9 88 bc d1 3a c0 bd 01 eb 22 3e
       0.1007628 -0.016705474 -0.09386218 0.1590996
000050 e2 58 b6 bc cb 8a eb 3c ce cd 1c bd e0 04 2d 3e
       -0.02225918 0.028752705 -0.03828221 0.16896391
000060 b7 52 13 3e 40 f9 e4 bd e3 6d 67 3d 74 c9 b1 3d
       0.14387022 -0.11180353 0.05650128 0.08681002
000070 ac e2 df 3d 51 15 2d bd 50 87 19 3e 75 85 2d 3e
       0.10931906 -0.042256657 0.14993024 0.16945441
000080 f7 7b 2a bd d4 45 35 3e 0a df 32 be e3 51 8b bd
       -0.04162213 0.17702419 -0.17467895 -0.06802728
000090 ea 96 4a 3d 3b 43 8b bc 87 08 9f 3d 99 d4 5b 3d
       0.04946033 -0.016999831 0.07765298 0.053669546
0000a0 7f 4a aa 3e 9b 99 a0 bd 89 6c 82 ba 0d f3 27 be
       0.3325996 -0.07841798 -0.0009950559 -0.1640131
0000b0 1c bd e8 bb 45 a1 72 3d f7 0e 14 3e 86 1b 7a bd
       -0.0071026217 0.05923583 0.14458834 -0.061061405
0000c0 74 81 94 3d e6 21 28 bd c6 b7 b7 3d 35 ef b0 3d
       0.07251254 -0.041047953 0.08970599 0.08639375
0000d0 df 1c f2 3d 5c b3 e1 3d 85 9a 5b bd 94 8d ad 3c
       0.11821913 0.11020538 -0.05361416 0.021185674
0000e0 4c 01 44 3e 69 17 0d be 18 09 a4 3e 3a 4e 45 bc
       0.1914112 -0.13778462 0.32038188 -0.012042576
0000f0 f3 db 17 be 90 7b 1a bc b8 4a 23 3d 99 96 07 3e
       -0.14829998 -0.009428874 0.03986618 0.13241042
000100 cc d1 b4 bc b4 0d dd bd 97 b3 ce bd 05 61 a2 3c
       -0.022072695 -0.10793629 -0.10092848 0.019821653
000110 a0 7f eb bc 6d ae ab 3d 11 8f 23 be 97 33 7b bd
       -0.02874738 0.083828785 -0.15972544 -0.061328497
000120 f4 7c f7 bd 05 50 0c 3d f8 1d a7 bd 7b 57 06 be
       -0.1208438 0.034256 -0.08160013 -0.13119309
000130 51 91 b0 bd 74 59 cb 3d 46 2d 85 3d b9 47 eb bd
       -0.08621467 0.09929171 0.06502776 -0.114882894
000140 a8 0e e8 bc 88 89 00 bd 41 a2 8e bd 26 96 b5 bd
       -0.028327301 -0.03138116 -0.06964541 -0.08866529
000150 cd c6 24 be 73 8a 5f 3e 47 19 9a 3d 91 27 97 bc
       -0.16091461 0.21830158 0.075243525 -0.018451484
000160 4f 56 37 3e e9 84 9f be e3 76 04 bc 09 b5 e6 bd
       0.17904018 -0.3115609 -0.008084985 -0.112649985
000170 0b 5d e9 3d 1a 12 f3 3d 49 7a e8 3d 34 65 93 bd
       0.113947 0.11868687 0.11351449 -0.07197037
000180 c6 5d 2e bd 9a 38 d8 bd cd 27 db bc 30 17 bc 3d
       -0.042569898 -0.10557671 -0.026752377 0.0918411
000190 1e 5f 01 bd f8 43 1c 3d 2f 96 56 3d 6a 8c 70 3d
       -0.03158485 0.038150758 0.05238932 0.05872766
0001a0 16 1a 1c bd ff ea 12 3e 51 b5 54 bd cd 1e 76 3d
       -0.038110815 0.14347456 -0.05193073 0.060087968
0001b0 63 be 1d 3c 4e 89 54 3c c5 43 b8 3c 4e 96 d4 bd
       0.009627911 0.012972189 0.022493253 -0.10380231
0001c0 92 4b 4d 3e c0 78 09 3e ce f5 28 be 70 48 04 be
       0.20048359 0.13424969 -0.16500017 -0.12918258
0001d0 54 98 49 be 7a d4 a4 3d ea 01 94 be bb b5 61 3d
       -0.19687015 0.08048339 -0.2890771 0.055104952
0001e0 2e dc 36 bb 9f 43 74 3b 60 28 32 be 2b 1e cd be
       -0.0027902233 0.003727175 -0.17398214 -0.4006208
0001f0 e7 1d 68 3e d5 8b 06 bc 15 4f bf 3c fb 14 36 bd
       0.22667657 -0.0082120495 0.023353139 -0.044453602
000200 0b 32 4d 3e 09 c3 b4 3d f7 1d 40 bd a1 1a f4 3d
       0.20038621 0.088262625 -0.046903577 0.119191416
000210 29 ab a4 3e 13 42 1d be d4 d9 4b be 39 bf 0f 3e
       0.32161835 -0.15357237 -0.19907314 0.1403779
000220 ca 1d 35 3e 1f 70 29 3d 33 87 7d 3e 84 08 e5 bc
       0.17687145 0.041366693 0.24758606 -0.027958162
000230 a6 16 da bd ec dd 05 3e 4b 6f 0a bd 28 8a dc bd
       -0.10648851 0.13072938 -0.033797543 -0.10768539
000240 88 62 8b 3e 6c 27 00 3e 36 30 eb 3b 3f c9 b1 3e
       0.2722361 0.12515038 0.007177378 0.3472385
000250 67 03 5c 3e ca a0 e9 bd e7 30 4c 3c 22 03 90 3e
       0.21485673 -0.11407621 0.012462831 0.2812739
000260 69 7c e1 3d 85 e4 03 bd a6 df 32 3e 6d b2 98 3e
       0.110100575 -0.032200355 0.17468128 0.29823628
000270 88 2d 1f 3e bf 35 68 3d 58 3e 2f 3d a3 62 44 3e
       0.15544713 0.05669188 0.042784065 0.19178252
000280 d0 4c b7 3d ac 26 ce 3d df 48 a5 bd a4 7a cc 3d
       0.08950198 0.1006597 -0.0807054 0.09984329
000290 1e 53 08 3e 61 27 56 3d 8a 9b 0f 3e 32 7f 27 3e
       0.13312957 0.05228365 0.14024177 0.16357115
0002a0 4e e3 99 3e 8e 46 46 3c 40 1a 54 3e 7e ff 16 3d
       0.30056232 0.0121017825 0.20713139 0.03686475
0002b0 9f 42 05 be 34 20 9c 3d 1d 87 46 3e 63 9e de 3c
       -0.13013695 0.0762333 0.19387479 0.027175134
0002c0 2b 9e 8c 3e a2 13 9e bd ff 62 43 3e 46 9e af 3d
       0.27464423 -0.077185884 0.19080733 0.0857511
0002d0 24 bf 80 3e 01 f3 19 3e e1 62 e0 3c 62 c8 5a 3e
       0.2514583 0.15034105 0.0273909 0.21365502
0002e0 32 b7 98 3e 1c 4e 69 bd 98 53 2a 3f db 64 21 3e
       0.29827267 -0.056959257 0.66533804 0.1576113
0002f0 72 f3 a4 bd fa ba 4b bd a3 c8 f7 3d c4 8d 4e 3e
       -0.08054246 -0.04973886 0.12098815 0.20171267
000300 2b ec 68 3c a7 e0 fa bd d9 96 aa bd e0 cb f2 3a
       0.014216463 -0.1224988 -0.08329553 0.0018523894
000310 a2 05 8d 3d a7 0b dc 3d 21 59 b6 3d 85 6f c8 bd
       0.0688584 0.1074441 0.08903719 -0.09786896
000320 08 44 79 bd d3 5d 61 3e 99 e7 2d bd 8e 03 74 bd
       -0.060855895 0.22008447 -0.042457197 -0.059573703
000330 6c 2e e2 3c d0 7f db 3e 75 e2 5a 3d 89 28 26 bd
       0.027610026 0.4287095 0.053438623 -0.040566
000340 09 5e 09 3e c3 4f 00 3e 9d 49 00 be 53 74 0c bc
       0.13414778 0.12530427 -0.12528081 -0.008572656
000350 54 53 d6 bd 00 4b 2c 3e d4 e8 2b 3e 19 9f d0 3d
       -0.10465112 0.16825485 0.16788036 0.101865955
000360 51 c1 f4 3d e1 af 9b be 2e 68 72 3d da af 3e bd
       0.11950935 -0.30407622 0.059181385 -0.046554424
000370 a5 7c 3b 3e a3 67 d1 3d 88 29 a5 3d 4b 78 f5 bc
       0.18309267 0.10224845 0.08064562 -0.029964587
000380 43 2f 2d bc 53 c7 ec bd e5 c7 48 3e 02 9f f1 3d
       -0.01057035 -0.115614556 0.19607504 0.117979065
000390 ef 4a c1 bd 7b c6 c1 3c ab 39 31 3e f1 1b 16 be
       -0.094381206 0.023654213 0.17307155 -0.14659096
0003a0 92 22 d2 3d c5 65 35 3e 3f 6a 31 3e 27 b8 8b 3d
       0.102605 0.17714603 0.17325686 0.06822234
0003b0 35 e1 72 3e 9a 7d 03 3e b2 58 6a 3e d7 4b fa bc
       0.23718722 0.12840882 0.22885397 -0.030553741
0003c0 5c 54 65 3e 44 2a 1b 3e 96 34 c6 bd fb 11 36 3d
       0.22395462 0.15152842 -0.09677999 0.04445074
0003d0 c3 3e 28 bd 9a 74 2a 3e b4 0a 97 3d 46 8c 63 3e
       -0.04107548 0.16646042 0.07375088 0.22221479
0003e0 28 5b 1d 3e 6c 01 99 bb e1 81 97 be 0d 32 a5 be
       0.15366805 -0.004669359 -0.29591277 -0.32264748
0003f0 c8 58 cd 3e 56 34 38 3d 3c 24 b4 3d 04 c7 1c bd
       0.40106797 0.044971786 0.08795974 -0.038275734

weight_hh_l0 f4 [512, 128]
000000 18 cb 1a be 4f d8 f6 bd 16 ee a5 bd 5e 69 3d 3d
       -0.15116537 -0.12052976 -0.08102052 0.046243064
000010 73 00 93 3c d3 0d 8b bd 0a 12 ff 3c c6 ba c5 bd
       0.01794455 -0.06789746 0.031136531 -0.09654765
000020 3e 9e 07 3e 18 35 9e be 1f ef 24 be 84 0b 11 be
       0.13243958 -0.30899882 -0.16106842 -0.14164549
000030 b1 c6 e0 3c ea 57 58 be d1 c0 7e bd ae a7 a0 bd
       0.027438493 -0.21127287 -0.062195603 -0.07844482
000040 bd 09 b7 bd ba 25 40 3e 2c 16 2e 3e a5 e2 b0 bd
       -0.08937404 0.18764392 0.17000645 -0.08636979
000050 2d b9 6d 3e 87 e6 43 3d aa c2 9d 3d 8a e9 17 3e
       0.2321517 0.04782727 0.07703145 0.14835182
000060 75 9f 45 3d 76 7f 31 bd 23 ac f5 bd c2 9b cd 3d
       0.048247773 -0.043334447 -0.11995723 0.10039474
000070 e5 ed 80 3d f6 d9 05 be 41 99 2a be 72 86 d9 3c
       0.06295375 -0.13071427 -0.16660024 0.026553366
000080 fc 1a 55 be ea ae 22 bd 97 a2 cc bc 88 6f ea 3d
       -0.20811075 -0.039717592 -0.024979873 0.11447054
000090 35 b2 71 3e 08 71 2a 3d a3 14 18 3e 20 8e 3b 3e
       0.23603137 0.0416117 0.14851622 0.18315935
0000a0 d5 0f 27 bd 57 b4 30 3e 5d 6c 33 3e 9b c5 63 3e
       -0.040786583 0.17256294 0.17521806 0.22243349
0000b0 40 d2 00 3e 05 75 19 be 17 57 28 3e 18 c3 ac 3d
       0.12580204 -0.14986046 0.16439472 0.08435649
0000c0 75 ea d2 bd 57 ba ef bb ee 88 7c 3d b1 d9 86 bd
       -0.102986254 -0.0073159146 0.061654024 -0.0658449
0000d0 7e 54 b8 3d c5 21 10 3e 58 fc c3 3c f1 55 80 3e
       0.090004906 0.14075382 0.023924038 0.25065568
0000e0 78 11 33 be 2f aa 23 be 88 ed c6 bc b4 45 73 be
       -0.17487133 -0.15982889 -0.024283186 -0.23757058
0000f0 7b 46 63 3e aa 84 a1 bd 5a d8 1f 3e fb 11 fd bd
       0.22194855 -0.07886632 0.15609875 -0.12356945
000100 cd 25 59 be d7 da 44 be 83 71 0c be c7 18 0c bc
       -0.21205826 -0.19224106 -0.13715176 -0.008550829
000110 2d 36 9e 3d 08 05 d5 3d 25 9d ea 3d 13 7b 15 be
       0.07725177 0.1040135 0.11455754 -0.1459773
000120 08 34 6e be 41 8c 72 be 8d cc d4 bd 96 55 d6 bd
       -0.23262036 -0.23686315 -0.103905775 -0.10465543
000130 d2 22 03 be cc 15 23 3e 31 8a 02 3e da 84 38 bd
       -0.12806252 0.15926284 0.12748028 -0.045048572
000140 9e f1 8d bd 9a bf d1 bd e6 34 aa 3d 8d 03 91 3d
       -0.069308504 -0.10241623 0.08310871 0.070807554
000150 fd 0c 5b 3e bf e4 26 3e f3 48 09 3e 71 ce 8a 3c
       0.21391673 0.16298197 0.13406734 0.016944142
000160 fc af 05 b9 1b d5 2c be 59 2c be bd cc ca 74 bd
       -0.00012749428 -0.16878168 -0.092858024 -0.059763715
000170 bf 37 6b 3e aa 2e d5 3d 0e be 02 3e 5a 8c e8 bc
       0.22970484 0.10409291 0.12767813 -0.028387237
000180 bc 90 16 3c 5d 51 00 be 80 ad 15 bd ec e9 27 3e
       0.009189781 -0.12531038 -0.036542416 0.16397828
000190 d3 06 0c 3d 28 9f 1c 3e c4 5b 1b 3d 7d 0b a3 3d
       0.034186196 0.15295088 0.03792931 0.079611756
0001a0 58 d9 ff 3c b3 5c 30 be 7a 96 97 3d eb 62 65 3e
       0.031231567 -0.17222862 0.07401748 0.22401015
0001b0 d0 88 04 be bf 06 dc bd a1 13 b3 3d 3c ad f6 3d
       -0.12942815 -0.10743474 0.08743978 0.120447606
0001c0 66 c3 d5 bd df 7d 4d 3d e2 ed 13 3e 1b 0e 71 bd
       -0.1043766 0.05016887 0.14446214 -0.058851343
0001d0 d2 c6 0a be 7e 64 a0 bd 1e be 95 3c 0e 78 25 be
       -0.13552406 -0.07831667 0.018279132 -0.16159078
0001e0 90 95 42 3e 86 4c cc bd e3 2b 42 3d 7d 83 0b bd
       0.19002366 -0.09975533 0.047405135 -0.034060944
0001f0 30 aa 97 3d 0d 62 0c 3e 4f aa 03 be ea 86 38 be
       0.074055076 0.13709278 -0.12857936 -0.18020216
000200 d9 c6 1a bd aa 76 99 3d e4 b9 1e 3d 6a 06 dc bc
       -0.037787292 0.074933365 0.038751498 -0.026858527
000210 49 2b 0c 3e 9c 78 39 be bd 78 09 3e 6f 46 6c bd
       0.13688387 -0.18112415 0.13424964 -0.05768436
000220 ec 1e 0e 3c 3b 56 7c be ec 6b 80 be 05 27 ac bd
       0.008674365 -0.2464227 -0.25082338 -0.0840588
000230 81 fe 9a 3a 60 f5 38 be 8f 29 c6 bd a7 d4 10 be
       0.0011825116 -0.18062353 -0.096758954 -0.1414362
000240 44 24 34 be c6 d3 12 3e f8 a1 86 3d 85 7a 2a be
       -0.17591959 0.14338598 0.06573862 -0.166483
000250 22 ff fb 3d 80 72 1d 3e 5b 3a f3 3d 83 e7 dc 3d
       0.12304522 0.1537571 0.11876365 0.10786345
000260 0f d5 7b bd 24 f9 b9 bd 92 63 5f be 95 26 38 3e
       -0.061482485 -0.09080723 -0.21815327 0.17983468
000270 e5 4c 12 3e c3 fc 40 bc 37 38 72 bd 77 46 10 3e
       0.14287145 -0.011779013 -0.059135642 0.1408938
000280 0d d2 27 be d5 84 98 bb 5f bc 83 bd 19 b6 05 3e
       -0.16388722 -0.0046545067 -0.06432413 0.13057746
000290 25 db 76 3e db d6 17 be eb 16 36 3e 89 3f f0 3d
       0.24107035 -0.14828055 0.1778218 0.11730868
0002a0 16 53 b5 b9 c5 bc ca 3d c2 44 e3 3c fb b3 82 3d
       -0.00034584914 0.09899286 0.027742747 0.06381985
0002b0 20 08 0f 3e 8a f9 d0 bd b6 3a 21 3e 4c 9a 9b 3d
       0.13967943 -0.10203846 0.15745053 0.07597789
0002c0 19 02 4e be 9e 84 ae 3d 0f 55 42 3e 98 c5 0a bd
       -0.20117988 0.085213885 0.1897776 -0.033879846
0002d0 aa 4b 9e 3d 80 9b 5b bc d8 41 f5 3d cc 5e 5f 3e
       0.077292755 -0.013403773 0.11975449 0.21813506
0002e0 de 6c 63 be aa 13 3e be aa d9 c5 bd fb 5b f2 bd
       -0.22209498 -0.18562189 -0.09660657 -0.1183395
0002f0 eb d8 5f 3d 34 66 ad bd 40 d2 fa 3d 6c 12 7b be
       0.05465023 -0.08466759 0.12247133 -0.24518746
000300 93 c3 5e 38 6f f3 de bd 94 a2 f7 bd 2c c0 13 bd
       5.3111067e-05 -0.10886275 -0.12091556 -0.03607194
000310 8a 58 e7 3d 96 74 4f 3e 61 0a 19 3e 62 58 86 bd
       0.11296184 0.20259318 0.14945365 -0.065598264
000320 e6 30 b8 bd f5 d6 1a be 40 a5 a5 bd c2 ac 0b bc
       -0.08993702 -0.15121062 -0.080881596 -0.008525075
000330 77 20 df bd 1c 3a e6 3d bd 52 e4 3d 9b f1 34 be
       -0.10894864 0.11241552 0.111485936 -0.1767029
000340 01 73 4c bd 6d 5f 17 be 84 63 29 3d bc 67 69 3d
       -0.049914364 -0.14782496 0.04135467 0.056983694
000350 ed 3e 55 3e 29 6e 17 3d b0 5a 71 3e 73 8b b5 3c
       0.20824786 0.03697029 0.23569751 0.022161221
000360 7c e5 c7 3d 41 63 15 bc a7 83 ad bd 9a 23 a2 bd
       0.097605675 -0.009117902 -0.08472376 -0.07916947
000370 65 00 61 3e ed 9e 26 3e aa 06 32 3d 4c e1 b7 bd
       0.21972807 0.16271563 0.043463387 -0.08978519
000380 91 e8 0a 3e 04 4a 0b be 9f fc 18 3d 8a 06 87 3d
       0.1356528 -0.13602453 0.037350293 0.06593044
000390 dd 04 ac 3d b6 5b 06 3e 93 77 f8 bd 2a 1f 02 bc
       0.08399365 0.13120922 -0.12132182 -0.007942
0003a0 37 0e a0 3d 9f f9 c0 bd fe 80 94 3e a4 b2 e2 3d
       0.07815211 -0.094226114 0.29004663 0.11069229
0003b0 a4 1a 55 be 51 3e ab bd 55 70 73 3e c2 a0 a1 3c
       -0.20810944 -0.08361495 0.2377332 0.019729976
0003c0 11 e7 a9 bc e1 e6 32 3e a1 cd f0 3c 47 29 11 3c
       -0.020740064 0.17470886 0.029394927 0.008859939
0003d0 db ff 13 be d7 ad 0c 3c 37 e4 93 bd 9f de 76 be
       -0.1445307 0.0085863685 -0.07221263 -0.2410836
0003e0 8b b5 b5 3d 5a 72 55 3c 9a e6 e3 3d 49 6a f1 bd
       0.08872517 0.013027752 0.11127968 -0.117878504
0003f0 4e ec f5 bb a5 e9 38 3e 06 cc ea bd e6 83 39 bd
       -0.0075049764 0.18057878 -0.11464696 -0.045291804

bias_ih_l0 f4 [512]
000000 42 c8 0e 3e e4 38 c0 3e 40 04 8e 3e ed d9 b4 bc
       0.1394358 0.37543404 0.27737617 -0.022076571
000010 aa ce 21 be d6 8d 97 3b 57 50 55 3d c5 7a 42 bd
       -0.15801492 0.0046250625 0.05207857 -0.047480363
000020 45 ce b8 3d 09 21 9b 3d 81 59 f0 3c 36 d1 bc 3c
       0.09023718 0.0757466 0.029339554 0.023048978
000030 cd 55 f3 3b a3 a3 0d 3d d7 04 27 3e ac a1 28 3d
       0.0074259997 0.034579884 0.1631044 0.041169807
000040 fd 12 4f bd 3c 51 85 bc ca ef d9 bd 80 6c 3c 3e
       -0.050555218 -0.016274087 -0.10641439 0.18400764
000050 16 d4 fe bc 52 5d 00 3c f4 3b f6 bc f1 b2 08 be
       -0.03110699 0.007834749 -0.030057885 -0.1334951
000060 4d 5b 67 bd da ea 14 3d 0a 85 95 bd a8 f2 ce 3d
       -0.056483556 0.036356784 -0.07300766 0.10104877
000070 03 70 c0 bd 95 8d ef 3c 3c 44 00 bd e0 22 07 3e
       -0.093963645 0.029242316 -0.031315073 0.13196898
000080 a8 c4 4a 3b ab a5 9e 3d 54 ca 77 bd 80 c3 de bd
       0.003093997 0.077464424 -0.06049569 -0.108771324
000090 f3 c1 12 3d 2d a5 04 3e 4f 4a 88 bd ef ba 8a 3c
       0.035829496 0.12953635 -0.06654798 0.01693484
0000a0 88 af 9f 3e bd 83 99 3c d4 70 88 3d bc fb ec 3d
       0.31188607 0.018739576 0.06662145 0.11571452
0000b0 77 62 ae 3c c6 5b 02 3d 46 5c 3b bd cf 04 47 3d
       0.021287186 0.031825803 -0.045742296 0.04858857
0000c0 18 84 2d 3b 4b 4b b0 bd a9 95 11 bb 0e aa 93 bd
       0.002647644 -0.08608111 -0.0022214449 -0.0721017
0000d0 26 73 8c bd 0a 72 79 3e fd 5b fb 3c 5a e7 45 bd
       -0.068579 0.24359909 0.030683512 -0.048316337
0000e0 fb a3 1d bd 9e d4 cb 3d b8 9c ce 3e 6b 48 21 bc
       -0.038486462 0.09952663 0.40353942 -0.009843926
0000f0 82 48 30 bb ba e0 c2 3d 71 43 0a be 34 80 20 3d
       -0.0026898687 0.095155194 -0.1350229 0.039184764
000100 b8 67 6d 3c a8 97 84 3d b3 4a 9b bc 0a 9a de bd
       0.0144900605 0.06474239 -0.018956518 -0.10869224
000110 69 46 49 bd 1c 38 03 be 84 c8 d3 3d b6 7c 9b bd
       -0.049139414 -0.12814373 0.1034098 -0.07592146
000120 28 ec 51 3d 97 ef da 3d 59 e7 9c bd e1 8f e2 3b
       0.051250607 0.106902294 -0.076613136 0.0069141244
000130 a9 8d 16 3d 02 25 4d bd b3 f0 62 bc cc 41 57 3d
       0.03675619 -0.05008412 -0.0138513325 0.052552983
000140 80 af c4 bd f7 c2 51 3b 90 e3 89 3d 95 b3 5b 3d
       -0.096037865 0.0032007077 0.06732857 0.05363806
000150 99 bf 63 ba bc 1f 0f 3e d0 1a c8 3d 68 9e 71 3d
       -0.0008687913 0.1397695 0.09770739 0.05898896
000160 fd 50 ba 3d fb 5d 90 3d cd 67 bd 3d 1d 15 27 3d
       0.090974785 0.07049175 0.09248314 0.04079162
000170 4d 5a a2 bb a7 11 c9 3d 4b 28 eb 3d 2e 0b 19 3e
       -0.0049546123 0.0981782 0.11482295 0.14945671
000180 1d 04 02 be 06 b2 c4 3d d7 80 27 3d b5 de e1 3c
       -0.12696882 0.09604268 0.040894356 0.027572015
000190 0a 4e 80 3c d0 3a eb 3d bd 95 68 3d 8f 6e 8a 3d
       0.015662212 0.11485827 0.056783427 0.06759369
0001a0 cf 55 a2 3d fb 47 55 3d 01 d3 e5 bc d5 0d cc 3d
       0.07926523 0.0520706 -0.028054716 0.09963576
0001b0 58 9f 92 bc 47 0d 3e bd ea a7 16 bd 20 6e 42 be
       -0.017898247 -0.04639938 -0.03678123 -0.18987322
0001c0 df dc a9 bc 90 97 76 bd 4f 87 42 bc 2f 89 29 be
       -0.020735202 -0.060203135 -0.01187308 -0.16556238
0001d0 a6 f8 2b be cf 28 79 bb db cc 8d 3e 60 bd e5 39
       -0.1679407 -0.0038018709 0.27695355 0.0004381938
0001e0 7f 6e 94 3d ef 1e ca 3d 2e b7 85 bd 58 39 4f 3d
       0.07247638 0.09869181 -0.065290794 0.050591797
0001f0 19 d5 97 3e 00 70 b5 3d 39 fd d5 bc dd ef f1 bc
       0.29654768 0.08859253 -0.026121723 -0.029533321
000200 9e 70 23 3d b8 5a 8f 3e 16 60 08 3e c8 fc e8 3d
       0.039902322 0.279989 0.13317904 0.11376339
000210 88 a8 80 be ad 58 8c 3d 39 97 6f bd 74 c3 bb bd
       -0.2512858 0.06852851 -0.058493827 -0.09168139
000220 77 bb b9 bb f3 16 62 3d 5f 76 d2 3c 77 6b f0 3c
       -0.0056680995 0.055197667 0.02569121 0.029348118
000230 96 d1 d9 3d 47 50 a3 bd 85 1f e3 3d 76 b4 55 3d
       0.106356785 -0.07974296 0.11089996 0.052174054
000240 2b 2d 8e bd 2c 94 92 3c 65 de 30 be c3 2f 3f 3e
       -0.06942209 0.01789292 -0.17272337 0.18670563
000250 06 18 af 3d 8e 44 88 bc 2d 60 cc bd be 24 f6 bd
       0.08549504 -0.016634252 -0.099792816 -0.12018727
000260 98 d7 ef 3c e0 06 d4 bd 9b cf 03 3d 4f b6 c5 3d
       0.029277608 -0.10352874 0.03218041 0.09653913
000270 4a ed c1 bd 1b b7 6a 3d 88 16 22 3d f7 72 97 3d
       -0.094690874 0.05730353 0.03957227 0.07394975
000280 e9 f8 68 bc e6 6c 30 3e a4 7b c2 bd 63 6a f9 3c
       -0.014219501 0.17229041 -0.09496239 0.030446237
000290 0d 19 92 bd 6b 39 51 bd 1a cf c2 3d 83 9f 93 bb
       -0.07133684 -0.05108015 0.09512158 -0.0045050993
0002a0 f0 27 93 3e 3c be 32 bc 51 a3 66 bc 83 1b aa bd
       0.28741407 -0.010909613 -0.014077024 -0.08306029
0002b0 8c 16 9e bc 9b b4 77 bd 7b 64 5a 3d dd d5 2a bd
       -0.01929786 -0.060474973 0.053318482 -0.041707862
0002c0 02 6d db bd 19 22 8e bd 3e 48 66 bd 6f 85 22 bc
       -0.10714151 -0.06940097 -0.05622124 -0.009919508
0002d0 6d f5 09 bd 2e 9e 9f 3d cd e9 4d 3d 75 ca e0 3c
       -0.033681322 0.07793842 0.050271798 0.027440289
0002e0 9d ae 18 3e 8d 46 34 3d 47 a8 fa 3e ec 61 ed 3b
       0.1491036 0.044012595 0.4895651 0.007244339
0002f0 ef f0 12 bd a0 ff be bc e8 73 52 bd 71 a1 1e 3d
       -0.035874303 -0.02331525 -0.051380068 0.03872818
000300 c5 a1 db 3d 14 de 1f 3b a3 ce b3 bd d7 a1 d4 3d
       0.107242145 0.0024393843 -0.08779647 0.10382431
000310 95 b2 90 bd 50 2f fc bc 12 c6 5d bd 3c 99 9d bd
       -0.07065312 -0.03078428 -0.054143973 -0.07695243
000320 83 d3 d4 bc e3 2c b7 3d 21 44 66 bd 06 cd a5 3c
       -0.025979763 0.08944108 -0.056217317 0.020239364
000330 48 98 85 3d 89 69 6b bd 1c 3c 7c bd c9 db ff b9
       0.06523186 -0.057473693 -0.061580762 -0.00048801143
000340 04 89 c3 bc 73 88 9c 3b 6f a8 e5 3d a0 ae 17 bd
       -0.023869045 0.004777008 0.11213767 -0.03703177
000350 10 e4 e0 3d a4 68 80 3e 79 2e 70 bc 08 12 c0 bc
       0.109809995 0.25079834 -0.014659517 -0.023446098
000360 e0 e0 60 bc 91 4c d2 bd b7 17 e9 3b 4e f7 82 3d
       -0.013725489 -0.1026851 0.0071134227 0.06394826
000370 62 a3 31 bc 68 f7 2b 3d df 85 a1 3b ab bd bd 3d
       -0.010842176 0.04198399 0.0049292888 0.09264692
000380 78 91 ab bd 8a 21 d9 3c 81 a1 68 bd b7 73 24 3c
       -0.08377355 0.02650525 -0.056794647 0.010037354
000390 4f e6 c0 bd f1 d0 44 bc 0b 47 23 3c 2f 18 29 3d
       -0.09418928 -0.012012706 0.009965668 0.04128283
0003a0 92 8d 74 3c 54 7a 5b bd 8b 2f 00 bd 55 1f f6 bc
       0.014926331 -0.053583458 -0.03129534 -0.030044237
0003b0 7a f2 b9 3d c7 49 e9 3c a7 b1 8b bd 84 5c bd bd
       0.09079452 0.028477563 -0.06820994 -0.092461616
0003c0 4d ba 29 3c 3a 8c af bd b2 e8 a1 3d 2a 4d 58 bd
       0.010359359 -0.08571668 0.07905711 -0.052807964
0003d0 a5 00 8b bd 41 da a2 3d 54 17 26 be 78 4a 3c 3d
       -0.06787232 0.07951785 -0.16219836 0.045969456
0003e0 e3 38 69 3d fb b2 04 3e 5b 24 9d 3b 58 38 9b bd
       0.056939017 0.129589 0.0047955937 -0.07579106
0003f0 e3 e2 8c 3e 9c 65 1e bd 50 9b 6e 3d e9 df 32 bc
       0.2751685 -0.03867112 0.058253586 -0.010917642

bias_hh_l0 f4 [512]
000000 80 b4 1f 3e b7 05 cb 3e ba aa 63 3e 62 8e 97 3d
       0.15596199 0.39652798 0.22233096 0.07400204
000010 e6 47 71 be 72 8f 1a 3d f7 8f 50 3b 2b 33 8c 3d
       -0.23562583 0.037734456 0.003182409 0.06845697
000020 b4 c6 11 3b d6 8f 83 3d f7 b7 17 bd 38 43 d4 3d
       0.002224368 0.06423919 -0.037040677 0.103643835
000030 25 ff f0 bb cc 51 19 3c 61 4f 11 3e 78 1c c4 3d
       -0.0073546343 0.009357881 0.14190437 0.095757425
000040 ba 54 b9 3d 7f 46 8c bd f3 4d 46 be 6d 1b c5 3d
       0.090493634 -0.068493836 -0.19365673 0.09624372
000050 27 ad 80 3d e2 3a 08 be d7 0a bf bd 4c 42 22 bc
       0.06283026 -0.13303712 -0.093282394 -0.009903502
000060 57 0e 93 bd c7 de 33 3d 2e 92 d9 bc cd e8 b1 3c
       -0.071804695 0.04391363 -0.026558962 0.021717453
000070 f7 b5 0a bd 30 de 8a 3d cb 48 9e 3c f6 f6 8f 3d
       -0.03386494 0.0678066 0.01932182 0.07029526
000080 e8 c5 79 3d 9e 65 dd 3d dd 44 a9 3d 70 0a b1 bd
       0.060979754 0.108103976 0.08265088 -0.08644569
000090 68 04 67 bd 09 38 0a 3e f1 f5 a2 3c 19 12 7b bc
       -0.056400687 0.13497938 0.019892665 -0.015324139
0000a0 fb 38 b7 3e 37 f5 d0 bd b8 c5 1f bd e9 f5 ee 3c
       0.3578566 -0.10203021 -0.03900692 0.029169993
0000b0 52 b0 5b 3d b1 ff a1 bc 48 c6 b2 bc 69 ca 62 bd
       0.05363495 -0.019775243 -0.021823063 -0.055368815
0000c0 38 e7 9c bd 7a e3 d9 bd c0 19 04 bd 92 1e 51 bc
       -0.07661289 -0.10639091 -0.03225112 -0.012763636
0000d0 0d 8c c8 bd 24 ac 68 3e 1d 61 a3 3d a3 c6 0e 3d
       -0.097923376 0.22721916 0.07977507 0.034857403
0000e0 05 f3 8f bd 42 5d cb 3a ec b3 c2 3e 59 2c f2 3d
       -0.07028774 0.0015515464 0.38027894 0.11824865
0000f0 a7 b2 6f bc 70 39 ab 3d 32 cf 28 bd ca a8 20 bd
       -0.014629996 0.08360565 -0.04121322 -0.03922347
000100 66 fa 5d 3d 19 a6 16 3e 68 b1 5f 3c 6f 0a 4a 3c
       0.054193877 0.14711799 0.013653137 0.012331589
000110 bc 02 c8 bd 7b 9d 02 be f0 4e b7 bc 47 96 82 bd
       -0.097661465 -0.12755387 -0.022376508 -0.063763194
000120 ed 4a 87 bd 7f b4 03 3e d5 52 b8 bc 65 0a c2 3d
       -0.06606088 0.12861823 -0.022500435 0.09474639
000130 f6 15 2a bd ba 84 de bb d0 b9 14 be 4b b1 49 3d
       -0.04152485 -0.0067907246 -0.14524007 0.049241345
000140 6b 91 33 3d 8b 00 a9 3d 7e 80 ed bc 91 3d 94 bd
       0.043839853 0.08252057 -0.028991934 -0.07238305
000150 38 e7 4f 3d 49 72 ba 3d cf ef 32 3d 23 38 9c 3d
       0.050757617 0.091038294 0.04368573 0.07627895
000160 12 59 ad 3c ac 3d 06 3d 82 b8 d7 39 81 c1 d2 3b
       0.021160636 0.03277366 0.00041145465 0.006431759
000170 db 61 07 bd cb 35 dc 3c 85 9d 80 3d 93 04 a3 3c
       -0.033052307 0.02688112 0.062800445 0.019899642
000180 df 70 ca bc ad 55 09 3e 87 40 35 3d 7a a4 6b 3d
       -0.024712024 0.13411589 0.04425099 0.057529904
000190 08 16 3b bd 3b 2e b6 3d 06 82 6c 3d b0 d6 0e 3d
       -0.045675308 0.088955365 0.057741188 0.03487271
0001a0 4b a3 92 3c 05 78 09 bc 6c 75 0a 3d 34 9f c8 3d
       0.01790013 -0.008390431 0.03380339 0.097959906
0001b0 cb 57 11 3e 0b ac fa bc 9e 41 2c 3d b0 a3 08 be
       0.14193647 -0.030599615 0.042054765 -0.13343692
0001c0 a8 db de 3c f8 63 04 3d b9 73 bf bc 38 01 15 be
       0.02720435 0.0323219 -0.02337061 -0.14551246
0001d0 d7 12 9c be 3d 0e e4 bb 09 fc 04 3e 26 b8 05 3d
       -0.30483124 -0.006959705 0.12986769 0.03264632
0001e0 93 f3 63 3c f5 ce 11 3d 82 00 c2 bd f6 19 c3 3d
       0.013913053 0.03559776 -0.09472753 0.09526436
0001f0 3c 4f 49 3e 59 83 6b 3c 91 4c c0 bd 2a 61 32 bc
       0.19659132 0.014374577 -0.09389604 -0.0108874235
000200 0e 7b e8 3d 91 25 61 3e 8b f5 6f 3d ce da e0 3d
       0.11351596 0.21986987 0.058583777 0.10979234
000210 05 de 6c be ec c2 86 bc b4 ac 88 bd 52 c3 05 be
       -0.23131569 -0.016450368 -0.066735655 -0.1306279
000220 37 ec d6 bc ad 9d 8f bd d8 2a 33 3c 0b d1 5e 3d
       -0.026235683 -0.07012496 0.010935508 0.054398578
000230 e9 b4 50 3d 66 fe 0a bd ed 7b ca 3d af f9 9f 3d
       0.05095378 -0.03393402 0.09886918 0.07811295
000240 8f 18 0a bd ed da 65 3d 16 a7 2d be 28 ff c6 3d
       -0.033714827 0.056116987 -0.1695827 0.09716636
000250 4b b4 2c 3c 14 ae 41 3b f9 07 a4 bd 6a cb ab bd
       0.010541032 0.0029553222 -0.08009333 -0.083884075
000260 f0 ab 6d 3d f6 db a5 3c 9f e2 91 3d 4d 89 e4 bb
       0.0580253 0.020246487 0.07123303 -0.0069743753
000270 03 44 a8 bc 8d 3b 88 3d b8 83 37 3d 11 86 8f 3c
       -0.020540243 0.066519834 0.04480335 0.017519983
000280 b1 e4 f8 3d 40 bb 39 3d 9d 31 20 bd e1 13 94 3a
       0.121529944 0.04534459 -0.039109815 0.0011297428
000290 99 b7 10 3d 16 bc 06 3c be ac 80 bd 82 e5 83 bd
       0.035331342 0.008223554 -0.06282948 -0.064402595
0002a0 cc 88 52 3e 5f 53 ad bc 95 ee 1d 3d 90 13 39 3d
       0.20559996 -0.021157918 0.038557608 0.045184672
0002b0 db e1 34 3d 5d 85 a3 bd d7 ca b0 3d a6 d0 77 bd
       0.044160705 -0.079844214 0.08632439 -0.060501717
0002c0 9d 40 a0 bd 19 ef 3b 3d bb aa 03 3d 9c 8a 27 3d
       -0.07824824 0.04588232 0.032145243 0.040903673
0002d0 be d3 37 bd ef da f0 3d 25 8d ba 3d b3 5e 54 3d
       -0.044879667 0.11760508 0.091089524 0.051848125
0002e0 82 fc bc 3d 74 c4 f1 3d 00 a7 15 3f f0 b2 5b bd
       0.092278495 0.118050486 0.58457947 -0.053637445
0002f0 c7 2c da 3c 29 ae e4 3c fe 7e 05 3c 7f 5f 78 bd
       0.02663268 0.027915077 0.008147953 -0.060637947
000300 46 8b 33 bc 1d cb bc 3d 66 e9 b2 bc 70 96 3b ba
       -0.010958498 0.09218428 -0.021839809 -0.0007155901
000310 fb 00 86 bd 7b e0 ec 3c 95 eb 75 3d 62 76 d0 3c
       -0.06543156 0.028915634 0.06003912 0.025447074
000320 c2 e5 80 bd 89 a5 0e 3d 4d fc b4 bd 2d 3a b0 3d
       -0.06293823 0.034825835 -0.08837185 0.08604846
000330 cf 07 6b 3d ba 64 54 bd 2b d5 ba bd 37 00 d5 bc
       0.057380494 -0.051853873 -0.0912269 -0.026001079
000340 85 e9 07 3d 1c 22 cc bc 0f 71 50 3d 50 a1 98 bd
       0.033181686 -0.024918608 0.05088907 -0.07452643
000350 3b 9b 32 3e 33 ca 39 3e db 05 b8 3d 62 64 82 bc
       0.17442028 0.18143539 0.08985492 -0.015917007
000360 33 de bd 3d 92 94 2f 3c 8b 0a 4e 3d c1 11 01 3d
       0.09270897 0.010716574 0.050303023 0.031511072
000370 ae cd 95 bc d4 58 6d bd a7 a9 5c bd 24 60 71 3d
       -0.018286552 -0.05794604 -0.05387273 0.058929577
000380 b4 f5 fe bd 12 ac 46 3d be 86 b6 3c fe a0 e4 3c
       -0.12449208 0.048503943 0.022281047 0.027908798
000390 39 ab 89 3d 96 36 8c bd ac 22 89 bd 65 57 b1 3b
       0.06722111 -0.06846349 -0.06696066 0.0054120296
0003a0 c0 a0 0b 3d 6f 6c 1a bd 36 66 aa bd 23 e2 9d 3d
       0.03408885 -0.037701067 -0.083202764 0.07709148
0003b0 9f e8 b6 bc f0 d9 99 bd 1f 0a 00 bc bb 4a 1a be
       -0.02232772 -0.075122714 -0.007814913 -0.1506757
0003c0 30 7a 8f 3b d9 4f d0 3c fa 5b 86 3d 0a 28 54 bd
       0.0043785796 0.0254287 0.06560512 -0.051795997
0003d0 c3 22 12 be 20 dc cd 3c ef 30 15 be 09 cb 47 bd
       -0.14271073 0.025129378 -0.14569448 -0.048777614
0003e0 c2 78 15 3c d0 60 1d 3e fb f0 2b bc b4 3d c2 3c
       0.009123029 0.15368962 -0.010494466 0.023711063
0003f0 ec c2 8a 3e fe 46 8c bd a4 24 d3 3c 44 0e 43 bd
       0.2710184 -0.06849478 0.025774308 -0.047621027

weight f4 [1, 128]
000000 f0 5d 3a be 26 34 46 be 58 78 25 3e 3e 25 da bc
       -0.18199897 -0.1935583 0.16159189 -0.026629087
000010 fb d6 eb 3c a8 34 cd 3d 4b d3 1e be 1d 9e 6b bd
       0.028789034 0.10019809 -0.1551029 -0.057523835
000020 46 b2 68 3d ff 2f a9 be e5 67 e8 bd b0 c7 83 3d
       0.05681064 -0.3304443 -0.11347941 0.06434572
000030 61 6c d1 bd 82 cf b4 bd 4c 2f a4 3d 6f f3 bc 3d
       -0.1022575 -0.088286415 0.08016834 0.09226119
000040 89 b6 0f be 84 a3 93 3d f0 c1 89 bc 51 1a 2f bd
       -0.14034475 0.072089225 -0.01681611 -0.042749707
000050 9e 05 63 3e 40 5f 56 bd 84 cb 24 bc b2 1e ac 3d
       0.22170112 -0.05233693 -0.0100582875 0.08404292
000060 80 f9 fe bc cf 5f a2 3d f0 db 8f bd 46 2f 1a 3e
       -0.03112483 0.0792843 -0.070243716 0.15057096
000070 ff db 7d 3d c4 e3 e7 bd da 7b 0b be 1e c4 00 bd
       0.061977383 -0.1132274 -0.13621464 -0.031437032
000080 98 23 85 bd ad cf 89 3d 49 c0 d4 3d 14 37 61 bd
       -0.065009296 0.06729064 0.10388238 -0.054984167
000090 31 ed 04 3d 6e df ac 3d 9a e2 8a 3d 40 26 fa 3d
       0.032452766 0.08441053 0.06781502 0.12214327
0000a0 84 29 06 be 4e a2 21 3e c9 ea b2 3d 03 e1 09 3e
       -0.13101774 0.1578457 0.08736188 0.13464741
0000b0 73 f2 77 bd 71 81 45 bd f5 e9 11 3e 61 d6 ad 3d
       -0.060533952 -0.048219148 0.14249404 0.08488155
0000c0 91 96 ee bd 54 8a 83 bd d3 21 13 3e 44 b7 1f bd
       -0.11649812 -0.06422868 0.14368372 -0.038993135
0000d0 1f 48 84 3d 71 9f 3b bc 23 15 b1 bd 3d 2f 18 3e
       0.064590685 -0.011451588 -0.0864661 0.1486177
0000e0 f7 7d d9 bd 97 17 f4 ba 67 ec b7 bd 7a 07 28 be
       -0.10619729 -0.0018622753 -0.08980637 -0.16409102
0000f0 22 ab 26 3e 66 a9 05 be 8f 23 f8 3c 0e b1 d6 bd
       0.1627622 -0.13052902 0.030290393 -0.10482989
000100 a0 a8 f3 bd db 79 17 be 65 ef 95 3d cf 45 45 3d
       -0.11897397 -0.14792578 0.073210515 0.048162278
000110 5d 4d 93 3c b3 55 96 ba 9f 13 a4 3d f8 88 77 3d
       0.017981226 -0.0011469632 0.08011555 0.060433358
000120 10 fb bc bd 1e 8b f7 bd 73 2b 90 3d 02 b5 6a 3d
       -0.09227574 -0.120870814 0.07039537 0.05730153
000130 05 66 79 3d 16 50 cc 3d 50 e3 31 3d 44 70 40 3d
       0.06088831 0.09976213 0.043429673 0.046982065
000140 4b df 04 3c 58 f7 d4 bd a7 e0 c5 bd ce 8b 98 bd
       0.008109878 -0.103987396 -0.0966199 -0.07448541
000150 21 9d bd bd 6f 00 d6 3d e3 e7 26 3e b6 7d e3 bd
       -0.092584856 0.104493015 0.16299395 -0.11107962
000160 a4 98 31 3d 95 2d 10 be 82 25 88 bd d0 97 24 3c
       0.04335846 -0.14079888 -0.06647779 0.010045961
000170 83 25 32 3e 9c 07 b1 3d 9d cc b7 3d 4f 70 36 3c
       0.17397122 0.086440295 0.08974574 0.011135175
000180 23 30 99 bd dd 39 9a 3c 7b 32 e4 3d dc c2 1f 3e
       -0.074798845 0.01882642 0.11142441 0.15601677
000190 d3 ce 09 bd 1b 77 b4 3d cd 82 68 3d 63 f8 85 3d
       -0.03364451 0.0881178 0.056765366 0.06541517
0001a0 3b 86 7e 3d c4 1f 10 bd 16 e8 01 3e 94 17 d1 3d
       0.06213973 -0.035186544 0.1268619 0.10209575
0001b0 0a 95 dd bd 72 77 0d 3a d3 ec d5 3d d1 c5 3e 3d
       -0.108194426 0.0005396522 0.10445561 0.04657537
0001c0 a0 a3 ba bd cb 40 59 3c 2a b7 fc bc 0b 6a 70 bc
       -0.0911324 0.013260077 -0.030849058 -0.01467372
0001d0 dd 24 19 bb 84 51 c5 3b 22 50 e0 be ad df 1d be
       -0.002336792 0.0060216803 -0.43811136 -0.15417357
0001e0 f2 84 1d 3e e6 4d ad 3d 8c 38 d1 bd 83 96 4c 3e
       0.15382746 0.084621236 -0.102158636 0.1997929
0001f0 56 69 e7 bc e2 4a b5 3d 4a 83 df bb 16 f8 16 3d
       -0.02824847 0.088521734 -0.006821071 0.036857687
